Chatbot/data.pth (torch, 7594 bytes, 6 tensors)

l1.weight f4 [8, 98]
00000000: 2a4a ae3d daa2 5fbd 0d4f c8bd f121 b23d
00000010: f25d 87bd 626f 8f3d ac4c a73d d82e 3dbc
00000020: c48a 873c a2e4 99bd 50d7 ccbb 106d 91bd
00000030: 8bc2 78bd 32e3 47bb 9044 0dbd ad84 9bbc
00000040: cc0f 11bd 58ab 1ebc d868 84bd acd4 463d
00000050: ea27 81bd 0066 6e3a 18ae 9abd 14eb d2bc
00000060: 2495 8bbc a0ff 33bc 4869 cdbc 9eea 743d
00000070: d0ed 7a3c 86e9 bf3d 4084 b83c 46f3 3d3c
00000080: 3fde a43c 06f1 913d 387e 663d 5804 1f3c
00000090: d41c 59bd 2ece 88bd 75ec b13c 3ef9 3bbd
000000a0: 5508 8e3d 8030 a5bd 68ce 3bbc cf0e f33c
000000b0: 0291 77bd 5f64 bebd 9080 ed3c 149a 9cbd
000000c0: 00f8 aebb ec0f b2bc 4369 46bd 9b0a 79bd
000000d0: 3979 b9bd fc49 34bd 1f5a fa3c 2831 54bc
000000e0: 6036 bd38 d4dc c83d 9031 71bd ac1c 74bd
000000f0: e818 413d 50c6 623c a489 80bd 50b7 273d
00000100: 43d8 5fbd 96e2 af3d e0c4 abbd d6ee aebc
00000110: ce6c 863d 547c 253d 5617 a3bd 4871 80bd
00000120: c0bc 35bc 028d abbd 2901 c2bd a885 adbc
00000130: 6c03 adbd cb48 ec3c 95f8 6b3d c71c 5fbd
00000140: 9776 b7bc 8aa7 c43d 7c3f debc e686 bf3d
00000150: f077 c73d 24da adbc 5cda 993c 9098 21bd
00000160: ba71 32bd e4d0 c53d b4a9 c93d b48f 373d
00000170: 3ab7 a4bd 74a7 b5bc a5ac bfbd cc9b 93bd
00000180: ef8a 813d 641d 90bc 8b39 5c3f 2f8d 053f
00000190: f1a6 883f 6181 cd3e dc29 01be a81b e33e
000001a0: 8e68 fdbe fa2c 25be 3190 e63e fe11 543e
000001b0: d680 ccbe 01f3 413f 0887 57be 1c54 a13d
000001c0: 94c5 c23e bffd 053c 1f70 c2bd bf9b 5e3f
000001d0: 9999 873e d7f9 6dbe a746 0a3f 35f7 033f
000001e0: 651a 8fbe 9850 5b3e 55bf dfbe f3b6 fb3e
000001f0: 2978 8d3e 8c1b c23e 4664 1d3f c16b 92be
00000200: 8650 273f f837 9a3d 6d16 1fbf 7230 0ebf
00000210: e5aa 10bf 5a2d 0ebf 7734 0ebf 2813 0abf
00000220: 8f21 75bd 587b f3be 81f0 b23e aa1d 003e
00000230: 1599 09bf a222 c83e ba25 543e 4800 32be
00000240: a0b8 acbc ee7d 183f a633 1e3f 222e c1be
00000250: 38e3 afbd 7fa6 dc3e b75e 573e d59d 9c3e
00000260: 8507 813e 1079 00bf 4254 893d fdc1 0d3f
00000270: bd00 82be 6659 053f fd61 343d bfc6 813f
00000280: 512b f13e a59f 163f 8669 c0be 9c26 d73e
00000290: 1615 fc3e 83db de3e 5c24 0f3e 3860 563e
000002a0: 2ebf 2ebf 51c8 d43e b46b 37be dec7 28bf
000002b0: d76f 043f 9937 72be 147b 9bbd dd42 933f
000002c0: ef36 a23e 1772 5ebe 81ed d1bd 2cc6 c43e
000002d0: 0339 56be 37e1 0e3e c01b 1a3f 9681 0b3f
000002e0: 76a7 12bf c0d5 893f 511b 7b3f db24 923e
000002f0: 2b0f bcbe 9ce2 b63d 0816 3a3e f937 e13e
00000300: a84c 1cbc c873 0ebe 5089 933d 3746 0cbf
00000310: 8b4d 673e 502b ce3e 735b cc3e 19dc 533d
00000320: 1ab3 3d3f 5aff 033e 7db8 033f bdf2 7bbe
00000330: 95eb f6be 368a cd3e ca8e 12be 3df4 063e
00000340: 2a72 dfbe 865d a13d 81ec 843f 5136 2f3f
00000350: a234 6a3c 0b9f 163f 3e28 c63e 0c54 e53e
00000360: 3a8b ec3e aca2 adbe b1bd 4c3f d147 bf3e
00000370: 35fa 06bf 8788 1d3f cc7e c0bd bf67 253d
00000380: f1d4 f73e 9b09 3e3f 1caf 293f d795 ad3c
00000390: 2379 c13c 1272 5b3f eb05 02bf 177f 5b3f
000003a0: 1da0 5b3f c8d5 a23d 8150 f33d c4e2 f4be
000003b0: 76e3 bf3e 6c33 753f 0b38 36be a3d2 493f
000003c0: 6ecc 693f 6367 9bbe 4d75 e03e 98af 0bbf
000003d0: 189e 773e bdd7 f4be 4d02 8cbd 4cd1 d2be
000003e0: 9a79 153f a466 1f3e cd23 b3bc 3ee4 9d3e
000003f0: d7fa 2dbc 93c4 e43d 74da 13be fecd e43e
0.085102394 -0.054598667 -0.09780703 0.0869788 -0.066097155 0.070036665 0.08168921 -0.011546813
0.01654566 -0.075143114 -0.006251253 -0.0710088 -0.060732406 -0.003050041 -0.034489214 -0.018984163
-0.035415456 -0.009684406 -0.0646531 0.048542663 -0.06306441 0.00090941787 -0.07552737 -0.02574686
-0.01703889 -0.010986239 -0.025074616 0.05979406 0.015315488 0.09370713 0.022524 0.011593645
0.020125506 0.0712605 0.056272715 0.0097056255 -0.05300601 -0.06679951 0.021719197 -0.045891993
0.06935183 -0.08065891 -0.011462785 0.029670147 -0.060441025 -0.09296488 0.028991967 -0.076465756
-0.0053396225 -0.021736108 -0.04844023 -0.06080113 -0.090563245 -0.04401587 0.030560551 -0.012951173
9.0223504e-05 0.098077446 -0.058885157 -0.059597656 0.047142893 0.013841227 -0.06276253 0.040946305
-0.054649603 0.0858814 -0.0838716 -0.02135412 0.065637216 0.04040177 -0.07963435 -0.06271607
-0.011092365 -0.083765045 -0.094728775 -0.021181896 -0.08447918 0.028843304 0.057610113 -0.054470804
-0.022395415 0.09602268 -0.027129881 0.09351902 0.09739673 -0.021222182 0.01878088 -0.039452136
-0.04356549 0.09658983 0.098468214 0.04481478 -0.0804276 -0.022174574 -0.09359101 -0.0720745
0.063253276 -0.01759214 0.86025304 0.52168554 1.0675946 0.4013777 -0.12613624 0.44357038
-0.4949383 -0.16130438 0.45031884 0.20709988 -0.39942044 0.7576142 -0.21047604 0.07877371
0.38041365 0.008178174 -0.09494042 0.869564 0.26484373 -0.23239838 0.54014057 0.51549083
-0.27949825 0.21417463 -0.43700662 0.49163017 0.27630737 0.37911642 0.6148113 -0.28597835
0.65357244 0.075302064 -0.62143594 -0.5554267 -0.56510764 -0.5553795 -0.55548805 -0.5393548
-0.059846457 -0.4755504 0.34949115 0.12511316 -0.5374921 0.39088923 0.20717517 -0.1738292
-0.02108413 0.59567153 0.6179756 -0.3773051 -0.085882604 0.43095776 0.21032225 0.30589166
0.2520105 -0.50184727 0.06705524 0.5537413 -0.25391188 0.52089536 0.04403876 1.0138777
0.4710336 0.5883735 -0.37580508 0.42021644 0.49234837 0.4352685 0.13978714 0.20935142
-0.6826047 0.4155908 -0.17912179 -0.65929973 0.51733154 -0.23654021 -0.07591835 1.150478
0.31682536 -0.2172321 -0.102503784 0.38432443 -0.20920186 0.139531 0.60198593 0.5449461
-0.57286775 1.0768356 0.98088557 0.28543743 -0.36730322 0.08929941 0.18172467 0.43988016
-0.009539761 -0.13911355 0.07203925 -0.5479464 0.22588174 0.4026742 0.3991352 0.051723573
0.7410141 0.12890378 0.5145338 -0.24604316 -0.4822661 0.4014451 -0.14312282 0.13179107
-0.43641788 0.07879166 1.0384675 0.68442255 0.014294775 0.5883643 0.38702577 0.44790685
0.4619997 -0.3391317 0.79976946 0.3735948 -0.52725536 0.6153645 -0.093991846 0.040382143
0.4840465 0.74233407 0.6628282 0.021189613 0.023617333 0.8572093 -0.5079028 0.857408
0.8579119 0.07950932 0.11880589 -0.47829258 0.37478226 0.9578159 -0.17794816 0.7883703
0.9132756 -0.30352315 0.43839493 -0.5456481 0.24181402 -0.47820845 -0.06836376 -0.41175306
0.58388674 0.15566498 -0.021867657 0.30838197 -0.010618887 0.11170306 -0.14438802 0.4468841

l1.bias f4 [8]
00000000: 67b9 d5bd d1ff 113f 17d6 893f ac8f a73e
00000010: d75e 843e 90fe 043f fb8b 453f 6fd2 113f
-0.10435753 0.5703097 1.076846 0.327268 0.25853607 0.5195093 0.7716672 0.5696172

l2.weight f4 [8, 8]
00000000: bd5f 1bbe 8540 d33f ebe8 293e 07fe 3d3f
00000010: c5bb 6ebe 0035 dd3e c50f 33bf f92d 0cbd
00000020: 7bd2 81bd 3e14 ca3f 8fca a83f 1270 86bf
00000030: 31e1 58bf b0cd 263f 2dd5 ed3e d455 14be
00000040: 407e 663c 2468 183d bff6 9abe 6919 3e3d
00000050: ca06 38be b16d 67be 92f5 7bbe 028b 273e
00000060: 0036 463a f6c9 dd3e f5e3 073f 8cc9 1a3f
00000070: 198d 5a3f 853e 983f cb07 e43d 3aaa 36be
00000080: c00d 013e 97ca b6be 3268 dfbd ee0b de3f
00000090: a017 dc3f 6847 1e3f eb93 933f 488e e43f
000000a0: d5b8 eb3d 64cf 4abf 15c0 c23f 14ae 00bf
000000b0: 068c 84bf 52ce 9bbf bd91 923f b5b3 303f
000000c0: f749 973e cbfe 67be ae67 6f3f f891 89be
000000d0: 2f67 a53e 048a 963f f844 e2be 40e8 d4bf
000000e0: cd97 813e e660 8a3f 3ff3 adbe bdf8 b0bf
000000f0: b679 c33d 40b7 4e3f a2a1 88be 186a ba3e
-0.1517324 1.6504065 0.16592757 0.7421574 -0.23313816 0.43204498 -0.6994594 -0.03422353
-0.06338974 1.5787427 1.3186816 -1.0502951 -0.84718615 0.65157604 0.46451703 -0.14485866
0.014068186 0.03720869 -0.30266377 0.04641095 -0.1797134 -0.22600438 -0.24605396 0.16361621
0.0007561147 0.43318146 0.5308221 0.60463786 0.8537155 1.189408 0.11134299 -0.17838374
0.12602901 -0.3570144 -0.109085456 1.7347391 1.719471 0.6182771 1.1529516 1.7855921
0.11509863 -0.792227 1.5214869 -0.5026562 -1.0355232 -1.2172339 1.1450726 0.6902421
0.29548618 -0.2265579 0.9351758 -0.26869178 0.32305285 1.1760869 -0.44193244 -1.6633377
0.25311127 1.0810821 -0.33974645 -1.3825909 0.09544699 0.8074837 -0.26685816 0.36409068

l2.bias f4 [8]
00000000: 6cd3 183e 0dae 573f bcc9 2abe d954 8ebf
00000010: b25f 19bf 8376 643f 3e31 233f 5b32 533f
0.14924401 0.84249955 -0.16678518 -1.1119643 -0.59911644 0.89243335 0.6374701 0.8249871

l3.weight f4 [11, 8]
00000000: c3a1 1d3f 15aa 94bd 26f6 9dbe cdd3 b33e
00000010: 0a37 61be c1a5 5ebf 6d6f afbf 5849 c3bf
00000020: 73ba 213d 34b8 0f3f a3da 083d 39f0 0ebf
00000030: d642 febf 67f8 24bf 83bb 8d3f 75f6 153f
00000040: ab32 04c0 c3ed 113f 31db 2bbe 71f8 b9bf
00000050: 0948 d0bf 2061 903f fd8e 873f 66b9 adbf
00000060: 572f b8bf 5010 fabf 99f4 633e cfbd 43bf
00000070: 4ea9 023f 1bc5 ac3e 1c4f 86bf a3f4 9cbf
00000080: c5e5 d23e ab99 dabf e11c 8cbe e60a b13e
00000090: 4702 263e 2738 cfbf 4779 bd3e 5b92 a7bf
000000a0: c872 39be 0545 df3e afe3 c73d cf75 86bd
000000b0: 8d61 44bf fe97 c93e be58 93bf 7021 8dbf
000000c0: e088 95bf 92c2 043e 557c 11be 78d0 e23d
000000d0: c710 1ebe 52ea e0be 62ff b9bf 42ca 053f
000000e0: bb02 e9bf cfad a1be ecd1 903e 8b6a b8be
000000f0: 7722 d0bd 9312 2d3f d462 243f 6a43 debf
00000100: e1e2 cf3e a064 323e e4ae 67be 12bb 723e
00000110: b7cf 32bf 0ca5 a2bf b538 f73e a1b6 d3bf
00000120: 56ac d1bf 390c 21bf 6b0f 453e 6014 a73e
00000130: 4f4d f33e 0017 99bf d477 7fbf 608c f6bf
00000140: 4c16 8b3f 46d2 003f 8576 69be fb57 bbbf
00000150: 395d e9be d5e6 b5bf 9eeb 00c0 a1d5 733f
0.61574954 -0.07259003 -0.3085186 0.3512253 -0.21993652 -0.8697167 -1.370588 -1.5256758
0.039484452 0.56140447 0.033411633 -0.558353 -1.9864147 -0.6444153 1.1072849 0.5857919
-2.0655925 0.5700342 -0.16782834 -1.4528943 -1.6271983 1.127964 1.0590512 -1.3572204
-1.4389447 -1.9536228 0.22261275 -0.764615 0.5103959 0.3374413 -1.0492892 -1.2262157
0.41190925 -1.7078146 -0.27365783 0.34578627 0.16211806 -1.6189011 0.3700659 -1.3091539
-0.18110192 0.43607345 0.09760224 -0.06565439 -0.7671135 0.39373773 -1.1511457 -1.1025829
-1.1682396 0.12964848 -0.14207585 0.110749185 -0.15436088 -0.43928772 -1.4531062 0.52261746
-1.8203958 -0.31577918 0.28285158 -0.36018786 -0.10162824 0.67606467 0.642133 -1.7364323
0.40602782 0.17421198 -0.22625309 0.23704174 -0.698482 -1.2706618 0.48285452 -1.6540109
-1.6380718 -0.62909275 0.19244163 0.32632732 0.4751992 -1.1960144 -0.9979222 -1.9261589
1.086618 0.5032085 -0.22799118 -1.4636225 -0.45578936 -1.4211069 -2.014381 0.95247847

l3.bias f4 [11]
00000000: 91b0 e3be f6db 393d 64bd 0b3f 9471 d73d
00000010: 3cd0 f5be 1d78 00be 0750 8cbe c036 02bf
00000020: 901c 07bf 8d55 993e 1caa 393f
-0.44470647 0.045375787 0.5458586 0.1051971 -0.48010433 -0.1254582 -0.27404806 -0.5086479
-0.5277796 0.29948083 0.7252519
